car_price_model.pth (torch, 24344 bytes, 5 tensors)

layer1.weight f4 [64, 3]
00000000: 9c2c 03be 0e90 813e b6c0 e6be f71f a93e
00000010: dff5 843d d0e5 47bd 9983 d33e d688 1ebd
00000020: de51 9fbe ed5c 30bf d87c 133d 41b7 843e
00000030: a0e2 d0be 44fd e4be 4856 e23e c48f dbbe
00000040: 7e0f 35bd 2d07 f6be ca0f c03b ee4e ca3b
00000050: d3a0 03bf 7024 ecbe c4ad cf3d 0a05 51be
00000060: 642e 223e 91d2 d1bd 1ab5 a2be 5f2a 4cbe
00000070: 7b58 9d3d 2fa7 ca3e f416 82be 1f1c 4e3c
00000080: 8ee5 adbd b28c 473c abdc 203f ac80 ee3d
00000090: 80d6 a7be e56e a83d 022c 1f3f fbe7 43bf
000000a0: 08b1 ea3d 8fc8 8e3e 3759 313e 9eb7 b33d
000000b0: 39d3 d5be 0ff1 f63e 82d6 263e 4d66 f9be
000000c0: 29fc e1be 4444 0abe 2be1 fcbc 1204 3d3f
000000d0: 01b3 6f3e 123e 2b3f ad3d d5be 4a4a cfbe
000000e0: 3a14 283f f2fa 083f 6da5 973d c680 eebe
000000f0: df5d 38bf 8bd2 cd3c 61fb d0be a568 2cbe
00000100: 21f7 8e3e 011a 06bf 6014 12bf 7547 72bd
00000110: de6d a9be 95f8 8dbd 56e3 5a3e c31d 943f
00000120: 413d a63f f1c8 8c3f 707f b6ba c957 76bd
00000130: d942 203d a4d3 cb3d 987c 503f 216a d13e
00000140: bbb7 b8ba ff45 213f 2682 c63e 847b a43f
00000150: 419d dc3e d54b 4d3e 2495 e7be 6666 de3e
00000160: c604 213d 403b 073f 5dac 44bf 1b71 90be
00000170: dcaf 1a3e adde af3f a06a 48be df11 a8bb
00000180: 173d 43be 816b ccbb cd4f 2dbf 8941 593f
00000190: 7142 bcbf 72ed e8bc 93ef 9d3d e775 84bf
000001a0: c179 77be cdf5 173f bcd7 2c3e 7fbd 2c3f
000001b0: 5fba 85bc d9e5 debf ec7b 5f3d 84ac e13e
000001c0: 0170 023f 838b ee3e 7dc8 303f 44f1 233f
000001d0: 64b2 6fbb 7560 dfbe 7254 653d a81c 3fbe
000001e0: aa17 763f 7aea dd3d affb 5fbc 80b4 29bf
000001f0: 9b85 623b 7159 cdbe ea86 b93e 3cc9 85bf
00000200: 6f74 a33e 014d eabd 2f0e b63c 0df8 1fbf
00000210: 6400 6f3f 1114 143e 997f 41bc ab58 463f
00000220: 4434 553e d9e7 de3e 4fae 6c3f 86ea 1abd
00000230: d92f 5c3e 61de 3fbf 80bc b23d 3479 94be
00000240: bb90 3abf a0f3 9abd 4df5 043f b26c 153f
00000250: bd92 013f ac5d f6bd 164d 0dbf a493 eabe
00000260: 5347 023f 920f 22bf 962c 0ebf 9e9a 073e
00000270: 70e2 d9be adae 04bf ae9f 4e3f 36e4 773f
00000280: f9da a5bf 0207 c9bd a034 cc3c b0f5 bdbe
00000290: 286b 95bd a00d 16bf 8134 04bf c570 f83d
000002a0: 8fba b2be 9e71 683e 1a4f 14bf b0b1 bdbe
000002b0: cada 6f3e 46c1 993e 95d5 503f 9788 2f3f
000002c0: 6a84 bcbe a643 903e b920 20be 0a30 9ebe
000002d0: 4df2 313d 1c6c b0bf 2b4c 39be 3dab fa3d
000002e0: 964a 823d e4b3 dabd 7307 263f 0726 093e
000002f0: 5885 0b3f f003 c63d 95a1 afbe 5d4f 9ebe
-0.12809986 0.25305218 -0.45068902 0.330322 0.06492209 -0.04880315 0.4131134 -0.038704716
-0.31117147 -0.68891793 0.036007732 0.25921062 -0.407979 -0.44724476 0.44206452 -0.42883122
-0.044204228 -0.4805235 0.005861257 0.00617396 -0.51417273 -0.4612155 0.10140565 -0.20412078
0.15838009 -0.102452405 -0.31778795 -0.19938038 0.07682892 0.39580676 -0.25408137 0.012579947
-0.0849105 0.0121795405 0.6283671 0.11645636 -0.32780838 0.082242765 0.62176526 -0.7652585
0.11459547 0.2788739 0.17319189 0.087752566 -0.41762713 0.48230788 0.16292766 -0.48710862
-0.44137695 -0.13502604 -0.030869087 0.73834336 0.23408128 0.66891587 -0.41648617 -0.40486366
0.65655863 0.5350791 0.07404599 -0.4658262 -0.72018236 0.025124809 -0.40816787 -0.16836794
0.2792292 -0.5238343 -0.5706234 -0.059150178 -0.33091635 -0.06932179 0.21375784 1.1571583
1.2987443 1.0998822 -0.0013923477 -0.060142312 0.03912625 0.099524766 0.81440115 0.40901282
-0.0014092842 0.6299743 0.3877117 1.2850194 0.43088725 0.20048459 -0.45230973 0.434375
0.039311193 0.52824783 -0.76825505 -0.28211293 0.15106148 1.373983 -0.19571924 -0.0051290835
-0.19066273 -0.0062384014 -0.6769989 0.84865624 -1.4707776 -0.028433535 0.07711711 -1.0348481
-0.24167539 0.5935944 0.16879171 0.6747665 -0.01632422 -1.7413894 0.05456154 0.4407693
0.50952154 0.46590814 0.6905592 0.6404002 -0.0036574835 -0.43628278 0.055988736 -0.18663275
0.9612986 0.108357385 -0.013670846 -0.66291046 0.0034564498 -0.401073 0.36235744 -1.0452037
0.3192477 -0.114404686 0.02222356 -0.6248787 0.9335997 0.1446078 -0.011810207 0.77479047
0.20820719 0.4353626 0.92453474 -0.037821315 0.21502627 -0.749487 0.0872736 -0.2899872
-0.7287709 -0.07565999 0.519368 0.5836898 0.5061453 -0.12029585 -0.5519575 -0.45815766
0.5089008 -0.6330501 -0.5553678 0.13242576 -0.4255557 -0.51829034 0.807124 0.968326
-1.295745 -0.0981579 0.024927437 -0.37101507 -0.07295829 -0.5861454 -0.51642615 0.12130884
-0.34907958 0.22699592 -0.579332 -0.37049627 0.23423305 0.30030268 0.815759 0.68567795
-0.36819774 0.28176612 -0.15637483 -0.30896026 0.043443967 -1.3782992 -0.18095462 0.12239692
0.063618824 -0.10678843 0.64855117 0.13393413 0.5450034 0.0966872 -0.34302965 -0.30919924

layer1.bias f4 [64]
00000000: 0387 d0bd 35bd 7f3e a042 25be d8ab 933a
00000010: 156e 07bf 6adf cb3d 9690 30bf bbfd d2be
00000020: 61b6 8cbe b708 7f3e 70df 893e 117c e3bd
00000030: 23d5 73bd 092a 9bbe 02b1 ebbe 8733 c2be
00000040: a04e 593e f3de 6ebe d0b3 9cbd 8f51 51be
00000050: f181 f3be 51eb c2bd e433 dc3e 009d eabe
00000060: da4f e7bc 67c6 063f 4d9e d43e 1419 a2be
00000070: cd83 d8be aaf0 bc3e 534d 99be aa10 43be
00000080: a3b3 1fbf 4c64 c83e b950 85be 91be e83e
00000090: 90c6 9e3d d362 a03e 0ebd 273e 2974 5bbf
000000a0: 44c2 32bf 979a d0be 9888 82bc 6473 5cbf
000000b0: c964 2dbf bf19 1cbf cedd cdbe 8400 18bf
000000c0: 51ed 24bf d9e2 b1bd e679 40bf 64f3 933d
000000d0: d539 0ebf 98f7 b83e d8a9 79be b1a3 833d
000000e0: 29ca 3fbf 0fd2 34be 4288 3fbd adbe a8be
000000f0: d98e 3abd 690d f33d a903 563e 8a49 bfbe
-0.101820014 0.2497452 -0.16138697 0.0011266423 -0.52902347 0.09954722 -0.6897062 -0.41209206
-0.27482894 0.24905668 0.26928282 -0.11107648 -0.059529435 -0.30305508 -0.46033484 -0.37929937
0.212214 -0.23327236 -0.07651484 -0.20441268 -0.47560075 -0.09517539 0.4300834 -0.45822906
-0.028236318 0.5264649 0.41527024 -0.31659758 -0.42288056 0.36902362 -0.29941806 -0.19049326
-0.6238348 0.3913902 -0.2603815 0.4545789 0.077527165 0.31325397 0.16380712 -0.8572412
-0.69827676 -0.40742943 -0.015934274 -0.8611357 -0.6773191 -0.60976785 -0.40208286 -0.59375787
-0.64424616 -0.08685846 -0.75186 0.072241575 -0.55556995 0.361264 -0.24381196 0.06427706
-0.74917847 -0.17658256 -0.046760805 -0.32957974 -0.045546386 0.11867792 0.20899834 -0.37360793

layer2.weight f4 [32, 64]
00000000: e38f 2fbb 234b de3c ae40 d4bd 431c 5fbd
00000010: 80d5 be3a 1bb5 7cbd 712c c6bd 3662 003c
00000020: 5284 f33c bdd2 c5bd 24bb 683d ae20 1d3d
00000030: 2772 8cbc a4a8 f53c dd30 debd b64c 04be
00000040: 3d11 8dbd c688 c63d 0c90 bb3d 1eb8 ff3d
00000050: 2e14 b03d 7e19 dcbd bc37 d5bd f609 c6bd
00000060: 427f a1bd bde4 3abd 0e8b d73d e28d a4bd
00000070: 9769 e2bd b24d c3bd 27a4 a23d 9c84 2d3d
00000080: 0edb 9e3c 283a 38bd c481 a2bd e678 d2bd
00000090: 42c9 cabd d431 263d 20f7 c2bd 1d44 333d
000000a0: 3039 303d d135 8b3c 3ed6 a93d d3de 8d3d
000000b0: 708f 533c 0468 f8bd 18bb bbbd b335 3abd
000000c0: 50bd c3bd 1210 d73d 2495 c1bd d801 f3bd
000000d0: 4ca0 cb3d f0b8 843c 12ef ccbd 8a2b ee3c
000000e0: 4fa5 f0bd fe73 e93c f865 c73c dc6e 0fbd
000000f0: 1115 8d3b 1a74 95bd 5049 c2bd 5bdf 1fbe
00000100: 9f0e f7be 3532 bf3c 3b82 393e 0199 ae3d
00000110: eaae d43d b2bf 97be 6389 f3be b058 66bd
00000120: 4c0b 273e 7774 9b3e 455d 58be 7299 09c0
00000130: e2e2 9b3d 2c48 b33d 8ade b4bd cbf2 25be
00000140: c15b 34bf 30d5 8dbd 61ce 6e3e 7881 063e
00000150: 1b13 08bf 4ac1 24bf 05f1 183e d6b3 cb3d
00000160: e807 1bbe 97f4 1ebd 334c cabc f0d6 503e
00000170: acde d2bc 07e2 bd3c b663 6fbf 950e 7b3d
00000180: d2b1 afbf 6002 b53e 42cd 683e fc5f 2c3e
00000190: 84d7 083f d22d d0bd 8021 b33d 04dd 3b3d
000001a0: fb32 b0bd f549 2fbf 053a 563e 2897 4fbf
000001b0: 0e46 643e 4b58 3cbd d0cf f03d 2994 dabd
000001c0: 94ff e6bd 8b6b 14be abc7 89be 38de 51bf
000001d0: 2008 983e 5cca a13e a44a a93d 8059 d4be
000001e0: ba5e 91bd 8d02 19be f10e f4bd 957f 1a3e
000001f0: 7f54 32bd 9696 90bd c7ec 55bd facc 5ebe
00000200: 78a4 573d 8495 a53e 4b7f 753e ee3c a3bf
00000210: b795 22be 66cd 243e dd14 0d3f 0df3 54bf
00000220: 56be af3e c5b4 f33e 3d76 8e3e c9ec 503e
00000230: 6532 48bd 332a 85be 705a 893d bd44 623d
00000240: f659 713e 698f 19bf 946d 18bf d7cb 783e
00000250: 3c7d 19be 5001 0c3d 8395 493e 6995 003f
00000260: ba52 2abf dffd e33e 4512 4e3e ae6d 1ebf
00000270: 4d3a 56be 8fde 563e 3e33 8ebf 9a9b 14bf
00000280: 54a0 b33d abe4 b2be 7047 2c3e 95c8 7f3e
00000290: 3568 1abd cbc5 653e 90bb 2abe 06b3 d9bf
000002a0: 78f4 053e c571 44be 08f7 41bc 9a40 ec3e
000002b0: a208 903e 7b72 84be 5e75 64bd e8cd 90bf
000002c0: 1828 07c0 a2ae 6cbf 2d31 6cbe cc9c 29bf
000002d0: 227a 6ac0 6110 ccbe 76f5 81bd 25bd d1be
000002e0: ae3f 293e ac23 1fbe 9352 12bf c977 babe
000002f0: bbc1 bc3e bfed a73e 7ac2 6dbe 3478 8b3e
00000300: 0064 c5bd f0a5 663d f117 d339 6502 823d
00000310: cf68 df3d d372 68bd e82e 5fbd 7cf8 f7bd
00000320: 3987 b73c bbb0 abbd aef1 54be 2e8a afbd
00000330: 70f0 403b a9f4 da3d ccfb cebd b9a4 b1bd
00000340: 5c0a 3dbe dc10 25be 2bd1 b93d 4fb3 293d
00000350: 23b8 63be 507b e8bb 3027 d4bd e2a5 d4bd
00000360: c195 c03d 2686 77bd 57b9 01bd c134 f4bd
00000370: a3e2 5a3b 134f 153c c0e0 03be 0070 963c
00000380: 398a f73d faed 89bc 51fc 103d b066 97bc
00000390: 0fe9 3bbe 365d 14be 3d18 a3bd ccd7 81bd
000003a0: ac9d c63d 54a9 5fbe 5ef2 ec3c 160d 783d
000003b0: f7c7 ccbc 4f4b a53a f2b1 9dbc 47f9 4d3d
000003c0: 7883 183d c681 c73c 1052 603d 5515 8d3c
000003d0: 3c18 d7bc 1b8a 983d 48b0 fa3d f5cf 233b
000003e0: 6c20 85bc bc31 16bd f8b2 64bd 5421 8cbd
000003f0: 16c6 87bd 68cd 2b3d 03c8 12bd 8d61 f1bd
-0.0026788644 0.027135437 -0.10363899 -0.05447031 0.0014559478 -0.061696153 -0.09676445 0.007835915
0.029726181 -0.09659336 0.056819096 0.038361244 -0.017144276 0.02998764 -0.10849164 -0.12919888
-0.068880536 0.09694056 0.09158334 0.124862894 0.08597599 -0.1074705 -0.10411021 -0.09669869
-0.078856006 -0.045628298 0.105245695 -0.080348745 -0.11055296 -0.095363036 0.07941466 0.042362794
0.019391563 -0.044977337 -0.07934907 -0.10276966 -0.09901668 0.040574864 -0.095197916 0.04376613
0.04302329 0.016993435 0.082928166 0.06927266 0.012912616 -0.121292144 -0.09166545 -0.045461368
-0.09557593 0.10501112 -0.094522744 -0.11865586 0.099426836 0.016201466 -0.100065365 0.029073495
-0.1175028 0.028497692 0.024340615 -0.035017833 0.00430549 -0.07297535 -0.094866395 -0.15612547
-0.48253343 0.02333937 0.18116085 0.08525277 0.10384925 -0.2963844 -0.47565755 -0.056236923
0.16312903 0.30362293 -0.2112933 -2.1499906 0.07611634 0.08754 -0.088315085 -0.162059
-0.70452505 -0.06925428 0.23320915 0.13135326 -0.5315415 -0.64357436 0.14935692 0.0994641
-0.15139735 -0.038807478 -0.024694538 0.20394492 -0.025740944 0.023179067 -0.9351152 0.061293203
-1.3726141 0.35353374 0.2273455 0.1683349 0.5345385 -0.101649895 0.08746624 0.045865074
-0.08603474 -0.68472224 0.2092057 -0.8109002 0.22292349 -0.04598264 0.11758387 -0.106727906
-0.112792164 -0.1449415 -0.26910147 -0.81979704 0.296937 0.315997 0.0826619 -0.41474533
-0.07098146 -0.1494238 -0.11916912 0.15087731 -0.043537613 -0.07059972 -0.05222776 -0.2175788
0.052647084 0.32340634 0.2397434 -1.2752969 -0.15877424 0.16093978 0.5510996 -0.83183366
0.34324902 0.47598854 0.27824584 0.20402826 -0.048876185 -0.26008758 0.06706703 0.055241335
0.23569474 -0.5998445 -0.595422 0.24296509 -0.1498918 0.03418094 0.1968594 0.5022798
-0.6653248 0.44529626 0.20124157 -0.6188611 -0.20920677 0.20983337 -1.1109388 -0.5804993
0.087708145 -0.34940085 0.16824126 0.2497886 -0.037697036 0.22438733 -0.16673112 -1.7007759
0.13081539 -0.19184025 -0.011838682 0.46143037 0.28131586 -0.25868592 -0.055775993 -1.1312838
-2.1118221 -0.9245397 -0.23065634 -0.6625488 -3.6637044 -0.39856246 -0.06345646 -0.40964618
0.16528198 -0.15540951 -0.5715725 -0.36419514 0.36866555 0.32798573 -0.23218718 0.27240145
-0.09638214 0.056310594 0.00040262894 0.06348113 0.109086625 -0.05675013 -0.054488093 -0.121079415
0.022403346 -0.08383318 -0.20795318 -0.085712776 0.0029440187 0.106911965 -0.1010662 -0.086739965
-0.18460983 -0.16119713 0.09073099 0.041430768 -0.22238211 -0.007094778 -0.10359037 -0.10383202
0.09403563 -0.06043067 -0.031670894 -0.119241245 0.0033399246 0.009113091 -0.12878704 0.018363953
0.12086911 -0.016837109 0.035396878 -0.018481582 -0.18350624 -0.14488682 -0.079636075 -0.06339988
0.09698042 -0.21841937 0.028924163 0.060559355 -0.024997694 0.0012610945 -0.01924989 0.050286558
0.037234753 0.024353873 0.05476576 0.017222086 -0.026256673 0.074482165 0.12240654 0.0024995778
-0.016250812 -0.036668524 -0.05583474 -0.06842294 -0.06629579 0.041943938 -0.035835277 -0.117861845

layer2.bias f4 [32]
00000000: 76da 9cbd ef6b 3a3e 88d6 023f cb6f 80bd
00000010: 23af 5bbd 8253 253e 8a70 9c3e e8ee 0d3c
00000020: fd7b 423e c6d6 a1bd f2d2 a73c fb2d 413e
00000030: 13e2 04be 5f65 4c3e 243e e6bd 3498 2dbe
00000040: 07db ac3e 23ad 35be 91c8 473e a763 6ebe
00000050: 9b3f bcbe 2c66 893d a454 88be 23d4 0fbe
00000060: 432c 063c cadd 86bc 873b a5be fd42 dd3d
00000070: aa09 2d3e e39f 4f3e b82d 2cbe 2964 8a3d
-0.076588556 0.18205236 0.511086 -0.06271323 -0.05363382 0.16145137 0.3055461 0.008662917
0.1899261 -0.07902293 0.020486329 0.18865196 -0.12976865 0.19960545 -0.11242321 -0.16952592
0.33760855 -0.17741828 0.19510104 -0.23280202 -0.36767277 0.06708941 -0.26627076 -0.14045767
0.008189264 -0.01646318 -0.32271978 0.108037926 0.16898218 0.20275836 -0.16814315 0.06757385

layer3.weight f4 [1, 32]
00000000: 63d0 14be 9bef 82be 24fe b43f 2c69 263b
00000010: 0c54 86bd ebd7 41bf e662 623f b901 a53d
00000020: 8801 d63e 3767 733d fc05 843e 396a 47bf
00000030: 4810 933d 9f1e 273f 3b49 8d3b 33dd 393d
00000040: c83f a5be 3360 acbc 3db7 583f 9445 28bc
00000050: b089 5f3e 892f 04bf ba63 ac3e d94e 533c
00000060: 37f3 df3d 1322 b1bd 7ac4 7a3e 78d3 3f3e
00000070: 8ca6 95bd debc a83f 76f2 d43e 2518 e83a
-0.14532618 -0.2557343 1.4140058 0.0025392277 -0.065589994 -0.7572009 0.8843216 0.08056969
0.41798043 0.059424605 0.25785816 -0.7789646 0.0718084 0.652811 0.0043117083 0.045376968
-0.32275224 -0.021041965 0.846546 -0.010270495 0.21829867 -0.5163503 0.33669835 0.012897217
0.109350614 -0.08649077 0.24489012 0.18733013 -0.07307157 1.3182638 0.41591233 0.0017707391
